save/sac/model.tflite (tflite, 533228 bytes, 8 tensors)

functional_1/h1/BiasAdd/ReadVariableOp/resource f4 [400]
000000 42 14 0d bf 77 e0 38 3e 6e 49 56 be e9 cc c2 bd
       -0.55109036 0.18054377 -0.20926449 -0.0951174
000010 7a 52 7a 3d f3 a2 f7 3d 8f 24 3b be 14 87 8f bd
       0.061113812 0.12091627 -0.18275665 -0.07008186
000020 cd c5 84 bd 05 72 1e be 9c 53 31 be 2b 39 ff bd
       -0.0648304 -0.15473182 -0.1731705 -0.12462076
000030 9b 21 c7 be 64 5d 70 bc 0b c6 a7 be 8e f5 2b 3d
       -0.38892826 -0.014670704 -0.32768282 0.041982226
000040 91 74 8a 3e 7c 81 b8 bd 76 37 a3 3c aa da c7 3c
       0.27042058 -0.09009072 0.019923907 0.02439626
000050 88 21 8f be 91 4d fd be 31 d6 c0 be cd d3 72 be
       -0.2795527 -0.4947324 -0.37663415 -0.23713608
000060 ff ec 08 bd 8a 04 86 be 36 98 95 bd db b9 e1 bc
       -0.033429142 -0.26175338 -0.073044226 -0.027554443
000070 13 85 e8 be bf 55 c8 be ba e3 52 be df 4e ca bd
       -0.45414028 -0.3912792 -0.20594683 -0.09878325
000080 40 56 6d 3e 09 4f 0f be 0c 59 d4 bd 0a ed e5 bd
       0.23177433 -0.13994993 -0.10368547 -0.11226852
000090 f4 eb 55 bd fd 0f 9c bd 4e f5 14 bd ad aa a0 be
       -0.052226976 -0.07620237 -0.036366753 -0.31380215
0000a0 b6 12 60 be bd 80 b2 bd c0 df 57 3e 4c e7 19 be
       -0.21882138 -0.08715961 0.21081448 -0.15029639
0000b0 44 f6 80 be fc b0 e2 bd c5 bf e3 3c 9c d0 59 be
       -0.25187886 -0.11068913 0.027801404 -0.21270984
0000c0 da ec 52 bd 9f 50 1f 3d a8 89 a4 bc 87 cb 9e be
       -0.05149541 0.038895246 -0.02008517 -0.31014654
0000d0 e4 ee a1 bd 94 0f a4 be 67 01 5b be 67 34 8f bd
       -0.07906893 -0.32043135 -0.21387254 -0.06992417
0000e0 a8 6d a9 bd 46 ce f8 3d 4e be 9f 3d 6c d0 5d be
       -0.082728684 0.121487185 0.077999696 -0.21661538
0000f0 7d 1c b0 be 23 a2 5d bd 18 e9 a3 be 8c ea f5 3d
       -0.34396735 -0.054109704 -0.32013774 0.12007627
000100 d1 14 92 be ba 9c 8d be 57 f3 18 bd bb 34 05 3e
       -0.28531507 -0.27658635 -0.037341442 0.13008396
000110 ea 8b 7a 3d c1 28 68 be 37 c7 96 bd db 42 46 3d
       0.06116859 -0.22671796 -0.07362216 0.048403602
000120 15 ed ac bd c9 0b 93 3e dc 8b 5a 3e f0 3e ba be
       -0.08443657 0.2871993 0.21342415 -0.36376143
000130 2c 27 7b be f0 8c 04 3d ad 97 11 be de 8d 9e be
       -0.24526662 0.03236097 -0.14218016 -0.3096761
000140 f8 5f 8c 3c 9f 42 04 be 23 66 5d be 19 e9 f5 bd
       0.017135605 -0.12916039 -0.21620993 -0.120073505
000150 e6 2b 30 be d6 79 85 be 48 e1 72 3e 16 8f bd be
       -0.17204246 -0.26069516 0.2371875 -0.37023228
000160 ab 8f af be 0c 1e 63 be 63 5e 36 3e 0c cc 50 3e
       -0.34289297 -0.2217943 0.17809443 0.20390338
000170 53 4c 01 be 6f b2 46 be 34 8b d6 be 24 1e a7 bd
       -0.12626772 -0.19404005 -0.4190308 -0.08160046
000180 3e 21 8d be 7d f5 45 3c db a9 87 3e 58 e8 7b 3c
       -0.27564424 0.012082455 0.26496777 0.015375219
000190 7a c5 85 3d 3d de c0 be 65 e5 b9 be 7f 04 bb 3c
       0.06531806 -0.37669554 -0.36307827 0.022829292
0001a0 0a ab e9 bc d1 bb be bd d7 78 8c bd b2 4a 87 3d
       -0.02852394 -0.09313167 -0.06858986 0.06606044
0001b0 b5 2a 87 bd d5 6f a9 bd 8f da 11 be 21 68 8b bd
       -0.065999426 -0.082732834 -0.1424353 -0.068069704
0001c0 c2 37 f7 3d f8 78 9d 3d 8e 23 d0 be 40 d1 33 3e
       0.12071182 0.076890886 -0.40652126 0.17560291
0001d0 5d 8e 28 be 19 e8 bb bd 1d 7f 7e be 64 86 01 3d
       -0.16460557 -0.091751285 -0.24853177 0.031622306
0001e0 1a 7f 1e be 12 41 78 3d 0d 4f 69 3e c9 20 a8 bd
       -0.15478173 0.06060893 0.22784062 -0.08209378
0001f0 97 7c a8 3d f0 1b 02 3e de 19 47 be e1 74 de 3d
       0.082268886 0.1270597 -0.19443461 0.10862137
000200 91 37 f5 be 52 63 71 be 99 a9 bc bd 20 03 64 bc
       -0.47893956 -0.23573044 -0.09212036 -0.013916761
000210 7c f5 0d be 5e 59 0a be 8e 59 35 be 3d d6 0c 3e
       -0.13863176 -0.13510653 -0.17709944 0.137536
000220 73 84 32 be 95 47 57 be 10 7f 41 3d 4b df 43 bd
       -0.17433338 -0.210234 0.047240317 -0.04782037
000230 84 2a 0f be 09 9c aa bc 4a 2b 3d bd 49 c3 a2 bd
       -0.13981062 -0.020826356 -0.04618386 -0.07947404
000240 aa f1 fb 3d 00 01 5e be 9c 56 5f be 2f 7f 3c bd
       0.12301953 -0.21680069 -0.21810383 -0.04601973
000250 b3 f3 58 be 9a 82 89 3e 57 ad 76 bd c8 83 fc bc
       -0.21186714 0.26857454 -0.060223904 -0.030824557
000260 ae b8 42 be 8a f5 d7 bd d3 9d 88 bd 2c 99 39 bd
       -0.19015762 -0.1054488 -0.066707276 -0.04531209
000270 59 05 0e bc 3b b5 a8 be b9 7c 85 be 28 96 35 3e
       -0.008668267 -0.32950768 -0.26071718 0.17733061
000280 6b fc a6 3e 83 b5 e2 bd 29 a3 a2 be 2a 91 a9 bd
       0.32614455 -0.11069777 -0.31765106 -0.08279641
000290 e7 73 82 bd f0 c3 46 be 9c 88 13 be 35 d1 29 3d
       -0.06369763 -0.19410682 -0.14407581 0.04145928
0002a0 83 b7 00 bd 6d c3 80 bd f2 ad 9b 3d cd c9 11 bd
       -0.03142501 -0.062872745 0.07601537 -0.035592843
0002b0 f8 11 eb be be ec 78 bc a1 cb cc bc 49 f5 80 be
       -0.45912147 -0.0151931625 -0.024999442 -0.25187138
0002c0 84 81 23 be 65 92 7d be 74 27 8d be 63 91 54 be
       -0.15967375 -0.24762876 -0.27569163 -0.20758586
0002d0 4e 24 b9 be a9 e4 1e be 19 c2 d0 be d0 5d 97 3d
       -0.3616051 -0.15516914 -0.40773085 0.0739094
0002e0 e7 3d 9b be c6 8b 85 be 00 bc 49 be 6c f0 53 3e
       -0.30320665 -0.260832 -0.19700623 0.20697182
0002f0 cf a7 38 3e 7c 74 ee 3b 4d ae 3c be 54 d4 26 3b
       0.18032764 0.0072770696 -0.18425865 0.0025456147
000300 f7 3c 5a bd 1d c2 fa be d2 80 81 be 86 e7 96 bc
       -0.053280797 -0.48976222 -0.25293595 -0.018420946
000310 91 f4 dc be c9 8d 84 be da f0 b6 3c 92 15 03 bf
       -0.4315534 -0.25889423 0.022331644 -0.5120479
000320 89 37 99 3d 82 20 e0 3a a9 61 af bc 8b e7 03 bf
       0.074812956 0.0017099532 -0.021408873 -0.5152518
000330 f2 3b 40 bc c3 3e 34 3e ba 11 0c bd d2 6b c0 bb
       -0.011733042 0.17602067 -0.034196593 -0.005872228
000340 e1 39 96 be 54 fd 8b be b9 6f e9 bc 23 bd 81 be
       -0.29341033 -0.27341712 -0.028495656 -0.25339612
000350 3f 8e 2e be 25 b5 45 be 3d ea 1e bd de 0f 4e be
       -0.1704645 -0.19307382 -0.038797606 -0.2012324
000360 c7 bc 11 3e 51 41 cb bd ef 1e 8b bd 57 a8 be bd
       0.14232169 -0.099245675 -0.067930095 -0.09309452
000370 2a 14 8d be 70 4d 3b be e0 e8 42 3d 1d c0 1d be
       -0.27554446 -0.18291259 0.04758537 -0.15405317
000380 e0 69 b7 bd 22 ea eb be c5 31 9d bc 1d 2c 14 be
       -0.08955741 -0.46077067 -0.019188771 -0.14469953
000390 95 6f cd 3d 06 f3 8f 3d 38 69 db be 17 6d f1 3d
       0.10031048 0.07028775 -0.42853713 0.11788385
0003a0 7c be 1a 3e 86 3a 12 be 6e 81 54 be 7f c8 94 3d
       0.15111727 -0.14280137 -0.20752499 0.07264804
0003b0 6a ed a4 bd dc 36 a9 bd 2d 7c e4 be cb ad a6 3d
       -0.08053096 -0.08262417 -0.4462599 0.08138617
0003c0 e2 e4 c9 bd 1c 89 a4 3e 7f 09 6d 3d e6 bd a6 be
       -0.09858109 0.32135856 0.057870384 -0.32566756
0003d0 d5 bc db 3d 5a ad 54 bd db 74 d6 bd 1f e7 73 be
       0.10729376 -0.051923133 -0.10471507 -0.23818634
0003e0 5c d5 c8 be cc 6d e3 bc bd ae 20 3e 82 ca 58 3e
       -0.3922528 -0.027762316 0.15691657 0.21171
0003f0 e1 8e b5 be 08 d3 e2 be 9b 73 62 bd ac 40 cd 3d
       -0.3546057 -0.4430163 -0.05528603 0.10022101

functional_1/h2/BiasAdd/ReadVariableOp/resource f4 [300]
000000 bc 72 ac be 31 e8 52 3d 67 d3 cc 3d 9f e7 6b 3d
       -0.33681285 0.051490966 0.10001259 0.057593938
000010 b0 82 dd bd 15 06 1c be e6 ad c4 be ff df 53 3e
       -0.10815942 -0.15236695 -0.38413924 0.20690916
000020 d0 60 2c 3f 5b 2d a0 3e fe 70 d7 be 4d c6 70 be
       0.67335224 0.31284603 -0.42078394 -0.23513146
000030 58 de f4 be 47 85 02 be ca 74 c8 bc e9 f8 47 3d
       -0.47825885 -0.12746154 -0.024469752 0.048821364
000040 ea 4a b2 3d 65 a9 29 3e f9 07 4a be 6a a3 69 be
       0.08705695 0.16568525 -0.19729604 -0.22816244
000050 95 f1 e0 be 1e ef 97 bd 2f e9 a4 be 3b a0 98 be
       -0.43934312 -0.07418655 -0.32209155 -0.29809746
000060 b5 44 44 be 4f db 3e bb d4 7d a1 bd 53 b7 45 be
       -0.19166835 -0.0029122417 -0.07885328 -0.19308214
000070 65 29 d2 bd 95 6f b6 bd f7 4b 43 bd a8 65 0a bf
       -0.10261802 -0.08908001 -0.047679868 -0.54061365
000080 17 b4 21 3d 25 40 44 be d1 80 ac bd ef 79 67 be
       0.039478388 -0.19165094 -0.08423007 -0.22605108
000090 9a b6 2f bd 21 74 fd 3e 26 19 c8 be 15 7f 5b be
       -0.04289875 0.49502662 -0.39081687 -0.21435197
0000a0 22 ae 90 be 2d 9a db be d4 2e d5 bd 2b 49 b4 bc
       -0.28257853 -0.42891064 -0.104093224 -0.022007545
0000b0 ec 34 89 3d 87 d2 0b bf fe 05 e1 bd fc 78 c6 bd
       0.06699547 -0.54618114 -0.10987471 -0.09691045
0000c0 34 14 fe bd 65 af cf be b6 76 f8 bd bc a8 bc bd
       -0.12406197 -0.40563503 -0.12132017 -0.09211871
0000d0 9e d9 04 be e1 d6 84 be 16 2f 21 bd ec 06 93 3d
       -0.1297364 -0.2594519 -0.039351545 0.071790546
0000e0 3a e8 39 3d 69 d7 c4 be 77 49 a4 be 83 d0 e9 3d
       0.045387484 -0.38445595 -0.320873 0.114167236
0000f0 e4 c8 89 be c3 9b ce bb d7 16 5e be b2 35 d0 bd
       -0.2691108 -0.0063051893 -0.216884 -0.101664916
000100 5f d4 b7 3e 0e f0 2a be 86 1a 93 be d3 5c 01 3f
       0.35904214 -0.16693136 -0.28731173 0.50532264
000110 b9 23 f8 be df ad 3b 3f 32 68 15 be fd f9 af be
       -0.48464754 0.7331218 -0.14590529 -0.34370413
000120 3d a5 c7 bc 88 c8 0f 3e 70 fc 37 be 74 ef 6b be
       -0.024370784 0.1404134 -0.17967391 -0.23040563
000130 7e fd 54 3e 29 43 8b bc 49 09 2b 3e c3 62 2e 3e
       0.20799825 -0.016999798 0.16702761 0.17029862
000140 d3 e4 12 be 6a 8d cd bd d8 19 52 be 40 b9 73 3e
       -0.14345102 -0.10036738 -0.20517671 0.23801136
000150 3a 69 bf bd 51 ff 56 3e 74 0c af be 69 be 01 3f
       -0.09346242 0.20995833 -0.34189188 0.5068117
000160 d6 fe 3e 3e 3f 1e 1d 3e de 19 ac be 9c 2e 97 be
       0.186519 0.15343569 -0.33613485 -0.29527748
000170 48 81 06 3f 6a e5 b4 3e 8d cf 5f 3e 4d aa fb be
       0.5254102 0.3533128 0.21856518 -0.49153367
000180 29 90 4e bd 4f 3f 19 3e b4 e5 df 3c bf 38 bd bd
       -0.05043045 0.14965557 0.02733121 -0.09239339
000190 3f 8d e8 be d9 bf 0b bf 93 ea 1f 3e 55 78 43 3e
       -0.45420262 -0.5458961 0.15616827 0.19088872
0001a0 85 92 64 3e 73 bb 3a 3e 5b e1 93 be ab 27 b3 3e
       0.22321518 0.18235569 -0.2888287 0.34991202
0001b0 f9 05 99 be 83 99 9e be a5 1d 3d 3e 3d ac 32 be
       -0.2988737 -0.30976495 0.1846834 -0.17448516
0001c0 97 94 88 bb f6 90 11 bf 54 0b 76 be 90 6e 5f bd
       -0.004168104 -0.5686182 -0.24027759 -0.0545488
0001d0 e7 9f ef be 0d 55 6f 3e 70 4a 65 3d d6 5f 6d 3d
       -0.46801683 0.23372288 0.055979192 0.057952724
0001e0 79 fe a5 bd 2a e2 2f be b4 46 ec bd b5 9a 41 bd
       -0.081051774 -0.17176118 -0.11536923 -0.04726668
0001f0 c3 0f 48 be 96 de cb bd 66 eb 81 be fa 48 8c 3e
       -0.19537263 -0.09954564 -0.25374907 0.27399427
000200 f1 c5 09 3e d7 b3 e2 be 1d 96 94 bc b4 a5 4b bd
       0.13454415 -0.44277832 -0.018137986 -0.049718574
000210 3d 51 91 be 14 c8 37 bb 83 11 a5 3e a3 f9 10 bf
       -0.28382292 -0.002804284 0.32239923 -0.56630915
000220 63 23 81 3e b0 c0 bb bc e2 28 6c 3e e9 99 7a bc
       0.2522231 -0.022919029 0.2306247 -0.015295484
000230 18 d3 31 be 49 b2 99 be ad 3e 26 be 65 f6 10 3e
       -0.17365682 -0.30018833 -0.16234846 0.14156492
000240 ac d7 17 3f 53 9b 76 be 5a 02 be 3d be 0a 62 be
       0.59313464 -0.24082689 0.09277792 -0.2207441
000250 2d 04 26 be 79 35 bf 3c fc c3 fa be 38 fa 88 3e
       -0.1621253 0.023340927 -0.4897765 0.26753402
000260 43 7d aa 3c d6 5d 9b be 8a 40 d3 bd b2 f3 8d be
       0.020811683 -0.3034503 -0.10315044 -0.27724987
000270 04 2a 37 3c 6d 38 d4 bd d1 06 9c 3e 81 33 f3 3e
       0.011179451 -0.10362325 0.3047395 0.47500232
000280 8c 18 30 be cd d8 cc be 19 85 50 3e e2 5d 3b 3c
       -0.17196864 -0.40009156 0.20363273 0.011435958
000290 af 60 b5 bd 29 49 f6 be 5a fd be 3e 97 9a 4c 3e
       -0.088563316 -0.48102692 0.37302667 0.19980846
0002a0 ed 94 79 bf 2c 78 4b bd 09 93 45 be 3b 48 86 be
       -0.9749287 -0.04967515 -0.1929437 -0.26226982
0002b0 29 14 23 bf 9e 3c b1 be d5 a2 ec bc 73 aa 6e be
       -0.63702637 -0.3461656 -0.028886238 -0.23307209
0002c0 5a fb 1d 3e 17 d8 d7 be 95 c0 19 be f2 3c 0a be
       0.15427914 -0.4215705 -0.1501487 -0.13499811
0002d0 06 b5 7b be df 33 d2 bd 45 fc a0 3e 64 28 cf be
       -0.24580774 -0.102638 0.31442466 -0.40460503
0002e0 6a 69 24 bf cd 3b 1d be 76 35 b6 be e4 db 81 3c
       -0.6422335 -0.15354843 -0.35587662 0.015851922
0002f0 1b 0a ab 3e df b2 5f be e6 f2 76 be b1 c1 20 3e
       0.33406147 -0.21845578 -0.24116096 0.15698887
000300 77 2d 01 be bc 13 5d 3e d9 49 40 be 4e ab 4b be
       -0.12615 0.2158956 -0.1877817 -0.19889566
000310 49 ec 03 3e 55 c7 2c bf 64 c6 06 3e 99 43 22 be
       0.12883104 -0.67491657 0.13161618 -0.15846099
000320 b3 6e 9f be b8 ed 19 bf d8 b9 7a bd b4 49 a8 bd
       -0.31139144 -0.60128355 -0.06121239 -0.08217183
000330 c8 9d a6 be 92 94 21 3d 73 a8 3a be c5 42 1b bf
       -0.32542253 0.03944833 -0.18228321 -0.6064876
000340 4a af 70 be 1e 8c 92 be f1 ec 7a be ac bf 92 bd
       -0.23504367 -0.28622526 -0.24504448 -0.07165465
000350 2b fb eb bd c4 37 9d be a6 21 5f bd 74 cb 41 be
       -0.11522516 -0.30706608 -0.05447545 -0.18925267
000360 f7 ea 8a be 68 c6 f2 be 05 37 00 be 2a 7e e6 be
       -0.2713239 -0.47416997 -0.12520988 -0.4501813
000370 a6 6c 8d be 7c ef f1 bd 4d e0 cc bd 4b e0 4d bd
       -0.27621955 -0.11813256 -0.100037195 -0.05026273
000380 99 5f 2d bf 1f 02 a1 be 99 40 9c be 1d df 10 3c
       -0.67723995 -0.3144693 -0.30518034 0.008842257
000390 11 42 99 bd a1 66 d7 3e 2c d7 92 3e 4a 3b ca bd
       -0.07483304 0.42070487 0.28679788 -0.0987459
0003a0 5d 42 92 be 28 2e cb bd 44 f5 c5 be 4e c5 0f be
       -0.28566256 -0.09920913 -0.38663685 -0.1404011
0003b0 5c 74 ff bd f7 59 9e be 25 4b de 3e 9e 90 d6 bd
       -0.12473366 -0.30928013 0.43416706 -0.10476802
0003c0 b7 4a 19 bf 60 08 cc be 52 64 e9 be a2 c1 c7 be
       -0.5987963 -0.3985014 -0.4558435 -0.39014918
0003d0 60 d8 c0 be 95 6f 8f bc 75 27 9c be 6c 26 d6 be
       -0.3766508 -0.017509261 -0.30498853 -0.4182619
0003e0 46 8f a0 be fc aa 33 3f 43 f6 fd 3d 6b a8 1e be
       -0.3135931 0.70182776 0.12400486 -0.15493934
0003f0 b4 c2 9e 3e 72 5d 77 be 80 51 28 bc 33 60 aa be
       0.31007922 -0.2415674 -0.010273337 -0.3327652

functional_1/mu/BiasAdd/ReadVariableOp/resource f4 [4]
000000 0b b1 53 3e 48 f9 84 bd 0a c2 dd 3d 62 bd 00 be
       0.20673005 -0.06492859 0.10828026 -0.12572244

functional_1/sigma/BiasAdd/ReadVariableOp/resource f4 [4]
000000 e1 4d f3 bf 3d cb f2 bf 6a d5 f6 bf 18 b6 f0 bf
       -1.9008142 -1.8968273 -1.9283879 -1.8805571

functional_1/h1/MatMul f4 [400, 24]
000000 de 5d 60 bf e7 de 14 c0 03 93 f3 3e 79 44 26 40
       -0.8764323 -2.3261049 0.475731 2.5979292
000010 0a 85 9e be 80 69 86 3e 28 0b 18 3f 2c 76 b4 3d
       -0.30960876 0.26252365 0.59392023 0.08811602
000020 cb 51 b2 3d 0e ed b4 bc 4a 35 31 be cd 32 c2 be
       0.08707007 -0.022085693 -0.17305484 -0.37929383
000030 51 42 27 be 85 16 41 bd cc f1 45 3e bb 1e d5 3d
       -0.16333891 -0.047140617 0.1933052 0.10406252
000040 cc 82 9d 3e a4 45 9e 3e 16 c1 41 3e a7 67 9d 3e
       0.30763853 0.30912507 0.18921313 0.30743143
000050 c5 de 8e 3e f4 ff b9 3e 6d 3c 02 3d bd 8b 19 bf
       0.27904335 0.3632809 0.031795908 -0.5997885
000060 f1 9a e1 be 2d f5 27 bf 49 12 23 bf 40 6f 2d 3f
       -0.44063523 -0.65608484 -0.63699776 0.6774788
000070 1e 38 93 be ca 28 09 bd 8b 35 dd be 6d aa c8 be
       -0.28753752 -0.033486165 -0.43204913 -0.39192525
000080 2b c4 ea be 40 10 67 bf 87 a1 3e 3f 1b 66 21 bf
       -0.4585279 -0.9025917 0.7446522 -0.63046426
000090 0e 60 98 3e c2 17 02 3f cd 90 8d be 94 8d 18 be
       0.29760784 0.508175 -0.27649537 -0.14897758
0000a0 1a 00 68 be 77 53 86 be 91 18 7b be 25 e3 85 be
       -0.22656289 -0.26235554 -0.2452109 -0.2614986
0000b0 02 c5 8a be 4f 31 54 be 03 fe b6 bd 9f 92 80 3e
       -0.2710343 -0.20721935 -0.08935168 0.25111863
0000c0 14 3d 49 3d d0 e8 13 3e 73 1c 32 3e e0 05 1e 3d
       0.049130514 0.1444428 0.17393665 0.03857982
0000d0 e4 38 8e 3d c6 31 f6 3c d6 74 96 bc aa a6 66 3d
       0.06944445 0.03005303 -0.018366259 0.056311287
0000e0 d3 65 f6 be 6f bd f1 bd 8c ce 9f be 42 54 1e 3d
       -0.4812456 -0.1180371 -0.3121227 0.038654573
0000f0 64 b5 c3 3e 73 90 91 be 94 e6 65 be 3a e4 93 be
       0.38224328 -0.28430519 -0.2245124 -0.2888506
000100 4a 00 8c be 98 ae 67 be bb c2 c2 be 51 35 a1 be
       -0.2734397 -0.22625196 -0.38039193 -0.3148599
000110 e0 24 96 be 34 12 cd be 27 80 10 be 87 0c 56 be
       -0.29325008 -0.4005295 -0.14111386 -0.20903216
000120 7b 7c 2b bd 02 38 de 3d 33 cf a1 be fc 3a 34 3d
       -0.04186676 0.108505264 -0.31603393 0.044001564
000130 5f 7c 9b 3a d1 58 6d bd f4 3f b0 bb e9 26 d0 bc
       0.0011862627 -0.05794603 -0.0053787176 -0.025409179
000140 27 c8 99 bc 20 0b d7 bd ae c9 b7 3d 82 fc 79 bd
       -0.018772198 -0.10500169 0.08974014 -0.061031826
000150 88 1f 61 bd f2 50 66 bd 76 bd 20 be 0d b1 2d be
       -0.05496171 -0.05622954 -0.15697274 -0.16962071
000160 dc a0 f5 3c 8c d6 ba bd 35 22 32 be a8 b3 c0 bd
       0.02998393 -0.09122953 -0.17395861 -0.09409267
000170 3d 51 e4 bd d7 25 a8 bd d9 db c8 bd 61 bc 5e bd
       -0.111483075 -0.082103424 -0.098075576 -0.05437887
000180 3d 01 10 3f f4 ad 3a c0 0d 39 39 bd 7f bd 65 bf
       0.5625189 -2.9168673 -0.045220423 -0.89742273
000190 8e da ee bc 69 db 98 bd 88 35 99 be cc 66 34 be
       -0.02915695 -0.07463724 -0.29923654 -0.17617339
0001a0 10 35 a1 be 2c 54 6a 3f 4f 00 df be cd 84 16 3f
       -0.31485796 0.91534686 -0.43554923 0.5879639
0001b0 a8 69 9c bb 07 4f 20 3c 32 94 1b be 59 dc ff bd
       -0.0047733374 0.009784467 -0.15193251 -0.124932
0001c0 3f fb 42 be 37 f7 54 be 57 18 d5 bc 80 1c eb bd
       -0.19041155 -0.2079743 -0.026012583 -0.11480045
0001d0 75 7b 27 be 47 e3 e7 bc 6e c3 2b bd aa a8 de bc
       -0.16355689 -0.028306616 -0.041934423 -0.027180035
0001e0 06 0b f2 3d 42 de d7 3c 61 fc 01 bf f7 e3 06 3f
       0.11818509 0.026351098 -0.50775725 0.52691597
0001f0 75 e1 28 bf 3e a3 69 be 5c 75 92 be 70 76 bf 3e
       -0.6596902 -0.22816178 -0.28605163 0.37395048
000200 44 c5 61 bf 26 ae 26 bf d5 89 15 be fb b8 89 be
       -0.8819163 -0.6510948 -0.1460336 -0.2689894
000210 cf a9 29 3f 77 05 d6 3e b6 15 db be 0c 0e cd be
       0.6627473 0.41801044 -0.42790002 -0.4004978
000220 7b 2d bf be e0 95 ba be 0e e7 e6 be bf fc d2 be
       -0.37339386 -0.3644247 -0.45098156 -0.41208455
000230 c4 25 89 be f5 35 e9 be 47 64 75 be 1a 40 71 3e
       -0.26786625 -0.45548978 -0.23964034 0.23559609
000240 05 c3 22 bf 45 99 35 bf a9 7c 63 bf ba 57 f6 3e
       -0.63578826 -0.70936996 -0.8886209 0.48113805
000250 a3 bd 06 bf 6b 5e 2a be 9b 6d 70 bf e8 9e 1c bf
       -0.5263311 -0.1663758 -0.93917245 -0.6117997
000260 4b e5 dc bd b4 ae 02 3f b7 9b 15 3e 38 89 aa 3e
       -0.10785922 0.51047826 0.14610182 0.33307815
000270 89 3c 62 3e 35 dd 4f 3e 6d 15 66 be 8e d4 7d be
       0.22093405 0.20299228 -0.22469111 -0.24788114
000280 ba 45 5c be a3 be 22 be a7 2c 66 be 11 2d af be
       -0.21510974 -0.15893035 -0.22477971 -0.3421407
000290 5c eb 15 be 54 f1 83 be db e4 ab be ca a6 b2 bd
       -0.14640564 -0.25770056 -0.3357304 -0.08723219
0002a0 ff 14 be be 98 04 51 3f 7f ce 32 bf f0 6f cf 3d
       -0.37125394 0.81647635 -0.6984634 0.10128772
0002b0 23 57 a0 3f 1c eb 2b 3e e0 9e 1d 3f ac 1d 80 bd
       1.2526592 0.16788906 0.6157055 -0.062556595
0002c0 1e 7e db 3e 9f 45 c6 3d 2f e8 45 3e dd 03 db be
       0.42869657 0.09681248 0.19326852 -0.42776385
0002d0 cf 04 15 bd ff 82 ed bd 97 e1 8d be 9d 25 1f be
       -0.03638154 -0.11597251 -0.27711174 -0.15541692
0002e0 5b 07 40 be 57 f5 40 bd e1 66 65 bd 02 b2 29 bd
       -0.18752806 -0.047108974 -0.056006316 -0.041429527
0002f0 9a d1 21 be 00 ef 76 bd f2 bf 15 be e2 82 82 bb
       -0.15802613 -0.060286522 -0.14624003 -0.0039828876
000300 0a b0 72 3e f7 ed 4c be f7 5d 82 bf ab 2c 8c 3e
       0.23699966 -0.20012651 -1.0184926 0.2737783
000310 a0 9d cc 3d e5 e7 99 be 12 d0 06 3e 24 72 af be
       0.09991002 -0.30059734 0.1316531 -0.3426677
000320 c4 cb 76 bf 9e 71 79 bd d8 fc 0a 3e 87 eb 7e bf
       -0.9640467 -0.06089937 0.13573015 -0.99578136
000330 c0 5f f4 3c da 58 9d be 40 a2 b6 be b9 72 b3 be
       0.029830813 -0.3073185 -0.35670662 -0.35048464
000340 25 38 da be b9 69 a8 be 1c 9a e9 be e2 2c dc be
       -0.4262096 -0.3289316 -0.4562539 -0.43002993
000350 85 18 b3 be eb 3c 9f be 47 06 ab be 2e f4 9a bd
       -0.34979644 -0.31101164 -0.33403227 -0.07566105
000360 38 12 e9 bd 9d ad b3 bf 61 c5 45 3f db a0 5b 3f
       -0.11380428 -1.4037358 0.772543 0.8579232
000370 66 c7 80 3f 13 20 5f be 68 da aa be f7 52 e8 3d
       1.0060852 -0.21789579 -0.33369756 0.11343949
000380 0e ab 23 be 78 27 5d bf 5d c3 2f 3d 64 e1 3d be
       -0.15983221 -0.8638835 0.042910922 -0.18543011
000390 9b 34 fd 3e 1f 27 94 3e 97 b9 23 be 8f 08 40 be
       0.49454197 0.28936097 -0.15988766 -0.18753265
0003a0 83 8a 69 be b8 84 2d be 7a ec 67 bd 38 f8 10 be
       -0.22806744 -0.1694516 -0.056622006 -0.14157188
0003b0 c2 3a 55 bd d9 ad f1 bd 16 8b bc 3b 06 39 de bd
       -0.05205799 -0.11800737 0.005753885 -0.1085072
0003c0 37 83 ab 3e 20 eb 57 3f 86 9c 25 c0 93 b4 ac be
       0.33498546 0.8434315 -2.5876784 -0.33731517
0003d0 31 54 cb 3d 4a 4a b0 bd 91 1c 00 bf 9c 9b 0b 3e
       0.099281676 -0.086079195 -0.5004359 0.13633579
0003e0 1a 2a f6 3e 3b d8 67 3e ed 6d 64 3d 59 9b 95 3e
       0.48078996 0.22641079 0.055768896 0.29220083
0003f0 ba 35 5a 3d 7d fa 2d 3f 2b f0 b2 be 4d 72 dd be
       0.053273894 0.6796034 -0.3494886 -0.43251267

functional_1/h2/MatMul f4 [300, 400]
000000 fb b0 9b bf 6e 69 a3 3d f1 64 5d be 2e 31 ba bd
       -1.2163385 0.079790935 -0.21620537 -0.090914115
000010 98 7b 26 bf 90 59 8e 3e 0b 9e 8a 3a db 68 bd 3e
       -0.6503234 0.27802706 0.0010575665 0.3699406
000020 c9 76 96 3f 05 85 83 3e 8b a9 3c bd 75 3d 6a be
       1.1755 0.25687423 -0.046060126 -0.22875006
000030 10 f3 b6 be d0 cd bd 3d 35 c5 aa be 0f 65 7e be
       -0.35732317 0.09267771 -0.33353582 -0.24843238
000040 f7 2b d6 be d2 f4 00 be 96 dd 60 be 6b eb d3 be
       -0.41830418 -0.12593392 -0.21959528 -0.41390547
000050 aa 5b 06 3e 20 a3 0c bf be 56 94 be 75 78 4e 3e
       0.13120905 -0.5493641 -0.2897243 0.20163138
000060 4a 1a 96 be ee 6a 40 3d 71 76 78 be c5 05 17 3e
       -0.29316932 0.046976976 -0.24263932 0.14748295
000070 94 60 c2 3e f9 03 e4 bd d5 7e 6c bf e2 17 ac bb
       0.37964308 -0.1113357 -0.9238103 -0.0052518705
000080 a4 81 c8 be 80 10 ac 3e c4 7a 35 bf 48 b7 7d 3e
       -0.39161408 0.33606339 -0.7089045 0.24776947
000090 e6 a4 22 3f 01 ac 8f 3e 4a 73 41 be 47 29 a7 be
       0.63532865 0.28060916 -0.18891636 -0.3264868
0000a0 bb ed f2 be b9 6b f9 3d 95 0e 2b bf e7 cd 0b bf
       -0.47447 0.121787496 -0.66819125 -0.5461106
0000b0 5f 0a 21 3e 43 a2 14 3d 2a ed 05 be ac 9c 90 3e
       0.15726613 0.036287557 -0.13078752 0.2824453
0000c0 80 6b c7 be a3 01 02 3f 3f 25 d9 3e bf 6b e8 be
       -0.38949203 0.5078375 0.4241123 -0.45394704
0000d0 a9 f1 28 3d 52 27 c2 bf a7 d3 b0 be bf 2f 6b bc
       0.04124609 -1.516825 -0.34536478 -0.014354645
0000e0 b0 43 b8 3c c2 fd 27 3e ef ce f2 be 95 6b 79 be
       0.022493213 0.16405395 -0.47423503 -0.24357446
0000f0 d9 c4 36 bf dd a2 65 3e 60 dd be 3e 4f 8f 7b 3d
       -0.71394116 0.22425409 0.3727827 0.061415967
000100 44 9c c3 be d9 5b 79 be 26 66 a9 bc ca 07 16 bf
       -0.3820516 -0.24351443 -0.020678591 -0.58605635
000110 0c 23 8d bc 69 5e 56 bd fd aa 38 3e 6b c3 8f be
       -0.017228626 -0.05233613 0.18033977 -0.2807878
000120 73 be a4 be d9 37 09 bf 96 b6 b5 be 34 42 01 bf
       -0.3217655 -0.5360084 -0.35490865 -0.5049164
000130 7c 50 7d bf 8a 9c ca be 6a 21 15 3e 74 62 fe be
       -0.98950934 -0.39572555 0.14563528 -0.4968449
000140 f1 0b 00 bf 1b 57 e0 3e 9b bb cb 3e e6 93 90 be
       -0.5001822 0.43816456 0.3979157 -0.28237838
000150 6e d5 0b bf 01 a0 55 bf ed e3 f9 3d 1e 15 64 3b
       -0.5462254 -0.8344727 0.122016765 0.0034802626
000160 ba c4 3e 3e c1 89 17 3d 1c 81 1f bf db da 1a 3b
       0.18629733 0.036996607 -0.6230638 0.0023628983
000170 e4 91 5f be 31 33 f7 be 28 8a 1c 3d 56 cf 9a bc
       -0.21832997 -0.48281243 0.038217694 -0.018897694
000180 33 5d 0c bf 54 07 77 be cc be 7b be 8b 6b 8f be
       -0.5482971 -0.24123889 -0.24584502 -0.28011736
000190 60 70 56 3e 85 c1 28 bf 16 e1 10 bf 99 6c f3 bd
       0.20941305 -0.6592029 -0.56593454 -0.11885948
0001a0 72 0e 53 be 88 8a 4d 3e 74 82 31 3f 76 9b 07 be
       -0.20610979 0.20072377 0.6933968 -0.13242897
0001b0 6c 9a 56 bf e9 b2 69 bf 61 47 a8 bd 30 0b 17 3e
       -0.8382938 -0.9128862 -0.082167394 0.14750361
0001c0 a3 01 14 bf 06 1d 5b be 3d 92 44 3d 5b 48 c8 be
       -0.57815 -0.2139779 0.047991026 -0.39117703
0001d0 31 79 27 3e 76 82 e2 be 65 dd 27 3e 6d 8c 89 be
       0.16354825 -0.4424016 0.16393049 -0.2686495
0001e0 2f 5e 43 3e f7 34 73 3e 66 5b a8 3d 72 c4 ed be
       0.19078897 0.23750673 0.08220558 -0.46438938
0001f0 5a ad 09 bd ba 66 7e be 1c 35 2c 3e ca 07 2f be
       -0.033612587 -0.24843875 0.16817135 -0.17092815
000200 60 5e f4 bd 98 df 14 be db c8 fc 3e ef ed bd bc
       -0.11932063 -0.14538419 0.4937199 -0.023184745
000210 f7 a8 35 3f 9a 70 80 3d b8 fd 57 be a5 81 3e bf
       0.70960945 0.06271477 -0.2109288 -0.7441657
000220 4c 6b d6 be ae ad 9b be 99 15 f7 bd 70 90 db bd
       -0.41878736 -0.30405945 -0.12064666 -0.10720909
000230 f9 d9 b0 bd e5 2b 2f bf ca fe 38 3e 9a 06 6c 3c
       -0.08635325 -0.6842635 0.18065944 0.014405871
000240 53 05 0f bf 2a 05 56 be 82 9c 5b bd 02 57 82 bd
       -0.558675 -0.20900407 -0.053616054 -0.06364252
000250 cb ac a5 3e 1e 0e a9 bd 81 27 b6 3b f0 1d 72 be
       0.32358393 -0.08254646 0.0055589085 -0.23644233
000260 b3 c6 14 bf 7a e3 5b be 3c c4 44 3d ae af 93 be
       -0.5811569 -0.21473494 0.048038706 -0.2884497
000270 61 9d 07 3f 07 92 68 3d d9 48 b7 3d bf 97 a7 bb
       0.52974516 0.056779888 0.089494415 -0.005114525
000280 59 dd 14 bf 5a bd 84 3d 1f 02 f1 3c 0d a5 fe be
       -0.5815025 0.064814284 0.029419957 -0.497353
000290 1d 0d ce be a0 d9 98 3e f1 bf 5f be 32 24 cc be
       -0.4024438 0.29853535 -0.21850564 -0.39871365
0002a0 ec 3c 4b bf 8f e9 f5 3d 41 b2 8f bf 8c e4 e2 3d
       -0.79389834 0.120074384 -1.1226274 0.11078748
0002b0 cb f0 82 bf 41 f0 a7 be b1 7a 3b be e8 f9 14 be
       -1.0229734 -0.32800487 -0.18308522 -0.14548457
0002c0 92 0d fa be a4 ec 95 be 9c f2 f2 be 08 90 af be
       -0.48838478 -0.29282105 -0.4745072 -0.34289575
0002d0 f5 84 69 3e e9 2d ae be 10 6a 63 bf 95 e4 19 be
       0.22804625 -0.34019402 -0.88833714 -0.15028603
0002e0 be f8 62 bd a9 88 91 be 9e 68 03 3e 82 56 02 3f
       -0.055413 -0.28424576 0.12832877 0.5091325
0002f0 f9 32 a3 be ad cc 03 3e 04 31 92 be 17 d5 53 be
       -0.31874827 0.12871046 -0.2855302 -0.20686756
000300 9f 82 b5 3c 4e 7d 55 3d 3c 58 4a bf 55 4d cb bd
       0.022157012 0.052121453 -0.79040885 -0.09926859
000310 b1 b4 fd bd a8 33 55 bd bc 01 c4 3d 48 9d c1 3e
       -0.1238798 -0.052051216 0.09570643 0.3781531
000320 1f 19 5a bc da bb 69 be 11 8c 19 3f f9 bb 6b bf
       -0.013311653 -0.22825566 0.5997935 -0.920837
000330 e9 58 7c bc 8c 14 85 be a8 6e b0 bc e8 41 2a bd
       -0.015402057 -0.2599224 -0.02153714 -0.04156676
000340 a8 a8 f9 3e 6d cb 90 3d f5 17 8e be f4 04 1d be
       0.48761487 0.070700504 -0.27752653 -0.1533392
000350 47 d3 88 be 2b 04 8b be 6e 29 91 3d 66 f8 37 bf
       -0.26723692 -0.27151617 0.0708798 -0.718634
000360 a8 69 5a 3f c4 1a 61 bf c7 b5 7e be 65 d0 29 bf
       0.8531747 -0.87931466 -0.2487403 -0.6633361
000370 fb 3a 39 be 17 0f f7 3d ff 87 4d 3e f6 2b 28 3f
       -0.18088906 0.12063425 0.2007141 0.6569208
000380 b0 c3 af 3e cd f9 a9 bd 6b ab 58 3f 0e fc d9 be
       0.34328985 -0.08299599 0.84636563 -0.42575115
000390 a1 8a 52 be cb e2 f1 3e 2a 12 34 bd de 13 89 bf
       -0.20560695 0.47243342 -0.043962635 -1.0709188
0003a0 04 f4 14 bf 72 41 a9 3f 46 a9 db be bf ba bb be
       -0.5818484 1.3223097 -0.42902583 -0.36665913
0003b0 9b 74 ae 3e 4b 9a a9 bd 0f ba a3 bd 05 2e 6f bd
       0.34073338 -0.08281382 -0.07994472 -0.058393497
0003c0 ed ca cb be df d3 0a 3d 4a 7f 26 3d 12 35 82 be
       -0.39803258 0.033893462 0.040648736 -0.25431114
0003d0 4e 76 fc be bf d3 1b 3e 39 03 60 bd f0 00 85 bd
       -0.4930901 0.15217493 -0.054690573 -0.064943194
0003e0 fa e8 48 be 1b 19 78 3e 72 3b e7 bd 88 11 33 3e
       -0.19620124 0.24228327 -0.11290635 0.17487156
0003f0 89 a3 71 bf ce f5 dc be b2 95 13 3e de 03 68 3e
       -0.9439016 -0.43156284 0.14412573 0.22657725

functional_1/mu/MatMul f4 [4, 300]
000000 5b 4a 00 bf a5 8c 1d bf e0 8a df 3e c5 60 27 3f
       -0.5011346 -0.6154273 0.4366064 0.65382034
000010 46 ca 61 be 6e 05 c9 be b4 98 f4 be 6b e9 39 be
       -0.22049817 -0.39261955 -0.47772753 -0.18155448
000020 2c 58 50 be 2c 78 7a bc df e9 04 be 27 f9 bd be
       -0.20346135 -0.01528744 -0.1297984 -0.3710415
000030 b5 42 81 3e 79 ea bd 3d f0 ef 14 3f b6 66 a8 3c
       0.25246206 0.09273238 0.58178616 0.020556789
000040 b9 08 82 3e 9e 76 3a 3f 03 93 63 3f fa 15 a6 3d
       0.2539728 0.72837245 0.888962 0.081096604
000050 90 c3 49 bd b8 ac b4 3d ba fb c5 be da 8d b3 be
       -0.04925877 0.08822006 -0.38668615 -0.35069162
000060 0b 8f d2 be d4 5c 92 3e eb e6 15 3e 42 86 8d be
       -0.41124758 0.28586447 0.1463887 -0.27641493
000070 69 9b 28 be fa 96 90 bd 8b 78 5c 3d 1d fe 01 3f
       -0.16465534 -0.070600465 0.053825896 0.5077837
000080 b3 e9 84 3c 43 54 cb bd a6 56 5e 3c 39 63 27 bf
       0.016224718 -0.09928181 0.013570463 -0.65385777
000090 47 85 48 bc 63 b1 81 3e 55 ea 88 3e 1d da b0 bd
       -0.012238807 0.25330648 0.2674128 -0.08635352
0000a0 c6 3d c1 3e 65 1d bb bd c0 80 2f 3d 3c 18 b4 3d
       0.37742442 -0.09136466 0.042847395 0.08793685
0000b0 86 27 33 be de 76 47 be 1f e2 c4 3e b5 0e ca 3d
       -0.17495546 -0.19478938 0.38453767 0.098660864
0000c0 8f 87 81 3d 04 bf bc 3e f7 09 ca 3e 86 a2 9f bc
       0.06324684 0.36864483 0.39460728 -0.019486677
0000d0 69 0c 85 be fc 0e da bd 7c 0c d2 3d 5d 14 54 3f
       -0.2598603 -0.10647389 0.102562875 0.8284357
0000e0 82 d1 65 3d 41 27 09 3f bc 78 8d 3d cd 2f a3 be
       0.056108005 0.5357552 0.06907794 -0.31872407
0000f0 f1 c7 2f bd d1 03 3a 3e 69 a5 0b bf 01 2a 93 3d
       -0.04291529 0.18165518 -0.5454927 0.07185746
000100 ec 8e 52 bd 3b 45 0f 3f 46 d8 ae 3e dd 1c 9e be
       -0.051405832 0.5596501 0.3414938 -0.30881396
000110 dd 66 dd 3d be a7 74 be ed 8f 84 3d 86 c4 d2 bd
       0.10810635 -0.23892114 0.06472764 -0.1029139
000120 d3 05 e5 3e 4a 7a ba 3e d4 9a 03 be b0 d0 7d 3d
       0.44731006 0.36421424 -0.12852031 0.061966598
000130 c8 89 a3 bb 81 e3 5b 3e 4f 19 fe 3e 39 5f 0e bf
       -0.00499079 0.21473505 0.49628684 -0.5561405
000140 31 32 83 3d 43 b3 d1 3d 8f 0b 5c 3e 3d de 4e be
       0.064060576 0.102392696 0.21488784 -0.20201965
000150 c9 5f f9 3d ee 96 1e be cc 6b bf 3d bf 00 99 3d
       0.12176473 -0.15487263 0.093467325 0.074708454
000160 5c 5b 24 3e 6d 00 03 3d 0a 55 42 bf 41 29 27 be
       0.16050476 0.031982828 -0.7591101 -0.16324331
000170 fe 40 3a be ba 35 91 be 95 45 f8 bc 63 08 45 3e
       -0.18188855 -0.28361303 -0.030306617 0.1924148
000180 e6 c0 c9 bd ae 37 6b bf b9 d6 b3 be f5 97 fe 3e
       -0.098512456 -0.91881835 -0.35124758 0.4972531
000190 7a 36 fd 3e 46 18 eb 3c 5d 5d 53 3d 11 da ca 3e
       0.49455625 0.028698098 0.05160271 0.39619496
0001a0 2c a4 e9 3e db 5b 0d 3d 92 26 85 bf a7 fc 1c bf
       0.45633066 0.03451143 -1.0402396 -0.61323017
0001b0 b5 e6 15 3f ee 84 80 bf f8 f9 de 3c fa 41 c3 3e
       0.58555156 -1.0040567 0.027218804 0.38136274
0001c0 d1 67 5e bd 0a b6 1c bf c2 37 b4 be 95 a8 44 be
       -0.054298226 -0.6121527 -0.3519879 -0.19204934
0001d0 ad f0 db be c1 0d c1 3d 46 ac c2 39 fd 24 40 bd
       -0.4295706 0.094264515 0.00037130917 -0.046910275
0001e0 c3 85 a6 3b 7b af e9 3e 1f 8c 57 bc 3c 87 6a bc
       0.0050818636 0.45641693 -0.013155966 -0.014314469
0001f0 86 8c 06 3f 2d a9 87 3e 51 1d 52 3d 94 84 12 3e
       0.5255817 0.26496258 0.05129749 0.14308387
000200 52 db 53 3e 63 dc fb 3e 99 a5 09 be e9 eb a1 3e
       0.20689133 0.4919158 -0.13442077 0.31625298
000210 ba 90 86 be de 87 d5 3e 59 50 5e 3e 8c 7b 89 3f
       -0.26282293 0.4170522 0.21710338 1.0740829
000220 ff 04 2d 3f 1c db 16 be 47 11 6a be c8 c7 1d 3d
       0.6758575 -0.14732021 -0.22858153 0.038520604
000230 4d 5a 64 be 79 a3 f8 be ab b2 f4 bb 3a 3f 88 bb
       -0.22300072 -0.4856222 -0.007467588 -0.004157928
000240 52 2f 5e 3c 7b d2 11 3f 62 b2 d9 3d ea 49 11 be
       0.013561087 0.5696179 0.10629727 -0.14188352
000250 71 9e 9f be 6d 55 f2 b9 f9 0d 53 3d 34 e8 87 3e
       -0.3117557 -0.00046221484 0.051526997 0.26544344
000260 96 1f 9d 3f 15 37 90 be 3b b7 86 bd 2e 15 b3 3d
       1.2275264 -0.28167024 -0.06577917 0.08744274
000270 41 3f a1 3e f4 e5 84 3c 4c 11 95 bd a2 82 02 3f
       0.3149357 0.016222931 -0.0727869 0.5098058
000280 fe e4 11 3e b5 a0 32 3e bc 9b 40 3e 46 d9 1f bf
       0.1424751 0.17444117 0.18809408 -0.6244091
000290 f9 a4 87 3e 6e 01 92 3e 91 00 22 3d fd 3b f6 bd
       0.26493052 0.28516716 0.03955132 -0.120231606
0002a0 f4 bf 68 be 6e e5 9a 3d b6 28 11 be c2 3e 22 3c
       -0.22729474 0.075632915 -0.14175686 0.009902658
0002b0 c2 99 a5 bf c3 95 4f 3e ad 13 08 be 07 2d 94 be
       -1.2937548 0.20271973 -0.13288756 -0.28940603
0002c0 d2 c1 ac bc 2c b6 25 be 54 f1 bd 3c 0f 56 42 bf
       -0.021088514 -0.16182774 0.023186363 -0.75912565
0002d0 03 d8 9a be f3 de 0a 3e 1f e0 75 3f 5d 00 83 bf
       -0.3024293 0.13561611 0.96045107 -1.0234486
0002e0 d0 09 f6 be ee 9c 8b be ed 05 07 3e d7 b0 98 3e
       -0.4805436 -0.27268165 0.13185854 0.29822418
0002f0 ec 0f 22 be 29 1d 00 3e 27 2c 86 3e 5c 72 ab be
       -0.15826386 0.12511124 0.2620556 -0.33485687
000300 82 7f 8f be 7b 2e fe 3d 6a 42 34 be 89 49 7b 3d
       -0.28026968 0.12411209 -0.1760346 0.061349425
000310 a5 50 63 bc 5d ec 82 be f9 29 38 3f 03 7c 22 3e
       -0.013874208 -0.25570956 0.71939045 0.15867619
000320 a4 71 48 bc 07 9f 07 3e cc af 05 3e a8 1e 96 3d
       -0.012234125 0.13244258 0.13055342 0.07330066
000330 66 19 a3 bd b2 a7 73 bc c1 79 88 3f 66 f4 48 be
       -0.07963829 -0.014871525 1.0662156 -0.1962448
000340 f0 3b 52 be 8d 46 da bc 4c 3d 10 3e 03 f2 72 be
       -0.20530677 -0.02664497 0.14085883 -0.23725133
000350 99 8d 8c bd 33 de 4d be 9b 23 d7 3d 9d c4 ee 3e
       -0.06862945 -0.20104294 0.10504838 0.4663438
000360 45 22 63 be 60 58 49 3f 50 f9 28 be 3a 82 78 bd
       -0.22181042 0.78650475 -0.16501355 -0.06067107
000370 08 4a be bd 75 22 3c bd 9e 2f 24 bd a0 dd 50 3e
       -0.09291464 -0.0459313 -0.040084474 0.20397043
000380 cc 89 2f 3e 2e f0 c2 be 9b 4c 18 be 0d 3b ca be
       0.17142409 -0.38073868 -0.14872973 -0.39498177
000390 26 b0 aa 3d ed 51 c5 bd a0 8f 6a bd e5 c8 32 3d
       0.08334379 -0.09634767 -0.057265878 0.04364862
0003a0 0c b5 c9 3d 9f 9f 32 bd 6e a9 e0 be 8d 3b 9d bd
       0.09848985 -0.043609258 -0.43879265 -0.07677374
0003b0 37 2d 19 bf 68 1f 2a 3f 0f fd 42 bf 39 9d 7d 3d
       -0.5983462 0.6645417 -0.76167387 0.061917517
0003c0 31 8e 2b 3d 63 1e d8 3e bf 85 4e 3d 12 72 2b bf
       0.04188365 0.42210683 0.05042052 -0.6697093
0003d0 f2 ea ba 3e 32 3d 25 3e 56 ea 36 bf a1 7c 8b be
       0.36507374 0.16136625 -0.7145132 -0.27243522
0003e0 f9 fd 9c be ae 07 fc 3e ab 86 56 bd 79 07 d9 3e
       -0.30662516 0.4922461 -0.052374523 0.42388514
0003f0 fc cb 05 bf b1 da 86 be a7 4b 28 be e1 5b 96 be
       -0.5226438 -0.26338723 -0.16435109 -0.29366973

functional_1/sigma/MatMul f4 [4, 300]
000000 ab 62 16 3f 9e 14 ea 3d f3 8a 75 bd f2 e2 59 3e
       0.58744305 0.11429714 -0.059946965 0.21277979
000010 81 c1 b3 3d e2 e5 b1 3d de 91 8e be d5 c7 3a 3d
       0.08777142 0.08686425 -0.27845663 0.04560073
000020 72 f3 a2 be 15 30 85 3c a7 97 d2 3c 9a 1d 4a 3e
       -0.3182636 0.016258279 0.02570708 0.19737855
000030 3c ab e3 3d 13 6c a8 bd 9c b5 15 3e ed 4e ab bd
       0.11116645 -0.082237385 0.1462006 -0.08364663
000040 1d 03 63 bd 1e 72 21 3e e7 d2 b9 3e fc e1 d3 bd
       -0.05542289 0.15766189 0.36293718 -0.103458375
000050 c1 e5 e9 3e 59 84 69 bd 2a 65 79 3f 62 f6 16 be
       0.456831 -0.057010982 0.9741999 -0.14742425
000060 ea c3 3b 3d 04 fc dd 3e 2f 5a 05 bc ae 1f 09 be
       0.045841135 0.43356335 -0.008139177 -0.13390991
000070 4f ad bd 3d c9 0f c8 3e 6e 79 aa 3d 1d ae 06 3f
       0.092615716 0.39074543 0.08323942 0.52609426
000080 0f 3c 6c 3d ff 7a 52 3d 3c 34 5c 3c 3f f5 5a 3f
       0.057674464 0.05138683 0.013440188 0.85530466
000090 75 fb 6a 3d 7d 57 71 3e b8 24 44 3e 94 2a 6f bd
       0.057368714 0.2356853 0.19154632 -0.058390215
0000a0 ad 70 3f 3e b0 85 08 3c 7c a3 c9 3d f7 a0 db be
       0.18695326 0.008332655 0.09845635 -0.42896244
0000b0 7c e6 12 3e 89 33 a9 3e a3 d9 c3 3e 78 94 9a bd
       0.14345735 0.3304713 0.3825198 -0.075478494
0000c0 0c 20 c7 bd 49 88 0c 3f 31 30 16 3e 83 c4 cb 3d
       -0.09722909 0.54895455 0.14666821 0.09949591
0000d0 c1 17 8b 3e d1 b2 52 3e af ee 2e be 7e 92 d1 3e
       0.2716656 0.20576026 -0.17083238 0.40932077
0000e0 13 74 62 3e 91 9e 9c 3e 90 79 ee bc 2f af 1c be
       0.22114591 0.30589727 -0.0291107 -0.15301202
0000f0 d8 b3 da bb f8 d1 b0 bc 64 a0 3f 3d 20 d6 7a be
       -0.006674271 -0.021584496 0.04678382 -0.24495745
000100 a2 d6 36 bd ea 8d a4 3e 17 d4 97 3a ad 1e de 3d
       -0.044638284 0.32139522 0.0011583593 0.10845695
000110 0d fe 6e 3e c7 cf 54 3c 9f bd 58 3e 6c 93 0d 3e
       0.233391 0.012988991 0.21166085 0.13825768
000120 85 fb 90 3e 6b df c5 3d 7c ef 39 3d 9b cc 00 be
       0.28316894 0.09661754 0.045394406 -0.12578051
000130 d5 f1 a0 3d ec e8 44 be 02 33 8c 3e 44 6b ab 3e
       0.07858626 -0.19229478 0.27382666 0.33480275
000140 ec 9b 1a bd 8f e1 b3 bd 8b 4a 96 3e d2 78 8a 3c
       -0.037746355 -0.08783256 0.29353747 0.016903315
000150 b3 da a3 be 87 60 f8 bc 90 42 56 bb af d0 12 be
       -0.32002792 -0.030319465 -0.0032693483 -0.14337419
000160 1f a4 05 bd a2 88 fd 3b b4 7e 7a 3f 81 c1 d4 bd
       -0.03262722 0.007737235 0.97849584 -0.103884704
000170 6d 59 aa 3c ab 1d 23 be 9c b2 a9 bd c6 4e 8b 3e
       0.020794595 -0.15929286 -0.0828602 0.27208537
000180 10 8c e4 3d ff a6 e4 3e 5a 27 d8 3d 22 37 5d 3e
       0.11159527 0.44658658 0.10554381 0.21603063
000190 3e 20 ca 3c 3e 5b b9 3d 45 15 2f 3c d2 53 66 3e
       0.024673577 0.09050606 0.010686223 0.22492912
0001a0 9c b5 9a 3e 22 b5 91 3e 4b 70 9c 3e a1 50 55 3e
       0.30216682 0.28458506 0.30554423 0.20831539
0001b0 ba c0 97 3e 91 34 de 3e 0a 61 be 3d 05 55 3a 3e
       0.29639226 0.4339948 0.092958525 0.18196495
0001c0 0d 41 25 3e 2d d8 f5 3d 35 0d 41 3e af 56 60 be
       0.16138096 0.12004123 0.18852694 -0.21908067
0001d0 2d 15 10 bd 7c b1 3c 3c 77 79 55 bc 64 62 00 bb
       -0.035176445 0.011516925 -0.013029448 -0.0019589895
0001e0 b6 7f 55 bd c5 c1 aa 3e 68 69 01 3e 90 1e e4 bd
       -0.052123748 0.3335096 0.12637866 -0.11138642
0001f0 86 0d 7e 3e 28 de b2 3d ff 93 48 3e c2 ed 0e 3e
       0.24809846 0.08733779 0.19587706 0.13957885
000200 51 07 28 3e 9e a0 0e 3f 98 93 58 3d 87 47 4f be
       0.16409041 0.5571383 0.05287513 -0.2024213
000210 1d c3 d7 3d 47 a1 b1 3d 76 04 a2 3d ca 5a ff 3e
       0.10535262 0.08673339 0.07911007 0.49873954
000220 8b 79 d0 3e 66 30 95 3d cf 00 35 be a8 35 9c 3d
       0.4071773 0.07284622 -0.1767609 0.076274216
000230 49 9a 52 3e f8 b6 ed 3b 15 d8 05 be 6d 41 1c 3d
       0.20566668 0.0072544776 -0.1307071 0.038148332
000240 0c 6d cc bd 5c 51 3a 3d cd fe 0a 3e 79 48 aa 3d
       -0.099817365 0.045487747 0.13573761 0.08314604
000250 b6 9c 68 3b 76 cb 09 3e a0 5b 97 3d 84 21 28 bd
       0.0035493798 0.1345652 0.07390523 -0.041047588
000260 f0 c7 77 3f 38 b2 c4 3d 52 b0 cc bd d5 05 f2 3d
       0.96789455 0.09604305 -0.09994568 0.118175186
000270 9d ae 51 3c 32 de c9 3d 94 1a 87 bc 94 64 db 3e
       0.012797979 0.098568335 -0.016492166 0.42850173
000280 b3 3e 1a 3d 82 1c 2e 3e bc ac de bd bf df 7b 3c
       0.03765745 0.17003062 -0.1087279 0.015373169
000290 15 93 32 bd ed 8c 94 3e d4 11 18 be 14 3b 0c be
       -0.0435973 0.29013768 -0.14850551 -0.13694412
0002a0 b9 f2 38 3d f5 1e 8c 3d 01 16 69 be 85 ba 8b 3d
       0.045153353 0.06841842 -0.227623 0.06822685
0002b0 46 b3 07 3f 15 4f 64 3e ed 78 8b be 9c 53 80 bd
       0.53007925 0.22295792 -0.27240697 -0.06265947
0002c0 b9 b3 e6 3d 7f cd ba bd 1a 00 fd 3c 59 1b 9a 3e
       0.11264748 -0.091212265 0.030883837 0.3009899
0002d0 a8 27 76 3e cf 41 f2 3e d9 85 d2 bd 3e 14 bf 3e
       0.24038565 0.47315833 -0.10279436 0.3732013
0002e0 c2 23 aa 3e 56 88 91 bd 0b 1d 0e 3e bd 5d aa 3e
       0.33230406 -0.07106082 0.13878267 0.33274642
0002f0 cb 6b 0e be da 07 fd 3d f5 fd 8a bd 0f 02 60 be
       -0.13908307 0.12355013 -0.0678672 -0.21875785
000300 2e c1 8c bc 02 5d 30 be c7 00 2b 3e 8c dc b4 3d
       -0.017181959 -0.1722298 0.16699515 0.088311285
000310 c2 6b 49 3c 47 6e 4f bd e6 df f9 bc b9 69 5b 3e
       0.012293758 -0.050642278 -0.03050227 0.21427049
000320 39 67 01 bd ac bb 98 3e e0 b7 c5 bd a8 0b 8f 3d
       -0.03159258 0.29830682 -0.09654212 0.06984645
000330 10 6b 21 3e 14 e5 73 be b8 1f f6 3e 46 50 7a 3e
       0.15763497 -0.23817855 0.48071074 0.24444684
000340 b1 e0 ca bd ee 69 79 bd 2d 90 a4 bb 33 a8 15 bd
       -0.09906138 -0.060892038 -0.00502207 -0.03653736
000350 47 68 f5 bc ab a9 3b 3e 6d ca a8 3d 55 b2 4b 3e
       -0.02995695 0.18326442 0.08241735 0.19892247
000360 ef 58 43 3d 52 9d 57 3e 23 0a dc 3e ac 7c a7 3d
       0.047692236 0.21056107 0.42976484 0.08178076
000370 76 42 22 3e 68 3e d2 3d 3f 44 9c bc 0c 57 30 be
       0.15845665 0.10265809 -0.019075511 -0.17220706
000380 97 cd 0c 3e 77 37 5b 3d cb c5 0f bd b0 bd 9f 3e
       0.13750301 0.053519692 -0.03510074 0.31199408
000390 70 43 00 be 4b 90 b6 bd 96 20 9e 3c 77 66 8b 3e
       -0.12525725 -0.089142404 0.019302648 0.27226612
0003a0 45 29 bd 3d 54 df 09 bd f9 85 8a 3e 70 8d 0e be
       0.09236387 -0.033660248 0.27055338 -0.13921142
0003b0 32 fe 0f bf ac e2 01 3e 62 b4 60 3e 3d e7 3e bb
       -0.56247246 0.12684125 0.2194381 -0.0029129528
0003c0 0b e4 36 be 99 71 3e 3e c6 cc c6 3e 9e a2 3e 3e
       -0.17860429 0.18598022 0.38828105 0.18616721
0003d0 5b 8c c7 3e 5d 5f f8 3d 6f 6e 7d 3e 22 b6 1c 3e
       0.3897427 0.12127564 0.24749158 0.15303853
0003e0 1d 16 4e bd 4f 3c b4 3e 22 6c 8e bd 1d f4 93 3e
       -0.050314058 0.35202262 -0.069542184 0.2889718
0003f0 a7 96 0d 3f c5 09 25 3e 60 6a e4 bd c0 8c b5 bd
       0.55308 0.16117008 -0.11153102 -0.088647366
